…
ape=c(28, 28, 1)) %>% \n  layer_max_pooling_2d(pool_size = c(2, 2)) %>%\n  layer_conv_2d(filters = 64, kernel_size = c(5, 5), activation='relu') %>% \n  layer_max_pooling_2d(pool_size = c(2, 2)) %>%\n  layer_flatten() %>%\n  layer_dense(units = 10, activation = 'softmax')\nsummary(modelo)\n\nModel: \"sequential_2\"\n________________________________________________________________________________\n Layer (type)                       Output Shape                    Param #     \n================================================================================\n conv2d_4 (Conv2D)                  (None, 24, 24, 32)              832         \n max_pooling2d_4 (MaxPooling2D)     (None, 12, 12, 32)              0           \n conv2d_3 (Conv2D)                  (None, 8, 8, 64)                51264       \n max_pooling2d_3 (MaxPooling2D)     (None, 4, 4, 64)                0           \n flatten (Flatten)                  (None, 1024)                    0           \n dense (Dense)                      (None, 10)                      10250       \n================================================================================\nTotal params: 62346 (243.54 KB)\nTrainable params: 62346 (243.54 KB)\nNon-trainable params: 0 (0.00 Byte)\n________________________________________________________________________________\n\n\nObservando este resumen, se aprecia fácilmente que las capas convolucionales requieren memoria para guardar los filt
…
= c(5, 5), activation='relu') %>% \n  layer_max_pooling_2d(pool_size = c(2, 2)) %>%\n  layer_dropout(0.25) %>%\n  layer_flatten() %>%\n  layer_dense(units = 128, activation = 'relu') %>% \n  layer_dropout(rate = 0.5) %>% \n  layer_dense(units = 10, activation = 'softmax')\nsummary(modelo)\n\nModel: \"sequential_3\"\n________________________________________________________________________________\n Layer (type)                       Output Shape                    Param #     \n================================================================================\n conv2d_6 (Conv2D)                  (None, 24, 24, 32)              832         \n max_pooling2d_6 (MaxPooling2D)     (None, 12, 12, 32)              0           \n conv2d_5 (Conv2D)                  (None, 8, 8, 64)                51264       \n max_pooling2d_5 (MaxPooling2D)     (None, 4, 4, 64)                0           \n dropout_1 (Dropout)                (None, 4, 4, 64)                0           \n flatten_1 (Flatten)                (None, 1024)                    0           \n dense_2 (Dense)                    (None, 128)                     131200      \n dropout (Dropout)                  (None, 128)                     0           \n dense_1 (Dense)                    (None, 10)                      1290        \n================================================================================\nTotal params: 184586 (721.04 KB)\nTrainable params: 184586 (721.04 KB)\nNon-trainable params: 0 (0.00 Byte)\n________________________________________________________________________________\n\n\nEl modelo tiene 184586 parámetros que debemos estimar. Configuramos el aprendizaje y entrenamos el modelo con 10 
…
_size = c(2, 2)) %>%\n  layer_conv_2d(filters = 128, kernel_size = c(5, 5), activation='relu') %>% \n  layer_max_pooling_2d(pool_size = c(2, 2)) %>%\n  layer_flatten() %>%\n  layer_dense(units = 64, activation = 'relu') %>%\n  layer_dense(units = 10, activation = 'softmax')\nsummary(mod2)\n\nModel: \"sequential_5\"\n________________________________________________________________________________\n Layer (type)                       Output Shape                    Param #     \n================================================================================\n conv2d_10 (Conv2D)                 (None, 24, 24, 64)              1664        \n max_pooling2d_10 (MaxPooling2D)    (None, 12, 12, 64)              0           \n conv2d_9 (Conv2D)                  (None, 8, 8, 128)               204928      \n max_pooling2d_9 (MaxPooling2D)     (None, 4, 4, 128)               0           \n flatten_3 (Flatten)                (None, 2048)                    0           \n dense_5 (Dense)                    (None, 64)                      131136      \n dense_4 (Dense)                    (None, 10)                      650         \n================================================================================\nTotal params: 338378 (1.29 MB)\nTrainable params: 338378 (1.29 MB)\nNon-trainable params: 0 (0.00 Byte)\n________________________________________________________________________________\n\n\nConfiguramos y entrenamos el modelo de forma similar al modelo anterior.\n\n# Proceso de aprendizaje\nmod2 %>% compi
…
